Lab2/best_minitgtres.pt (torch, 228217 bytes, 38 tensors)

enc.weight f4 [64, 9]
00000000: 798a 3ebd c827 babd 1f9b f3bc c112 893e
00000010: 41f6 c43d 4b6d 58bd 630a a23d b61f 6d3e
00000020: a289 203d 6640 6d3e e1fa 27bd a5a1 993e
00000030: 6541 1abe a7f4 37be a155 d93d e814 84be
00000040: c3ca f6bd 46aa f1bd 0801 a03e 843f a12f
00000050: de12 74bd d6a9 5ebe 0989 7c3e ce2e 8cbd
00000060: 3c83 f53d ab81 653e 60c2 33bd 9d46 9b3e
00000070: 6788 8bb9 b388 f73d e565 8f3e 4687 6cbe
00000080: b0ed 0138 2d1b 3fbe 5074 dbbd a59d c8bd
00000090: 7e09 b5be b27a 55bd 5e0c 803e 48e6 963e
000000a0: 8696 43be 860b beb8 1b2c d2bd af55 b13d
000000b0: c162 8f3e ceb2 8a3e d0bf 8c3d a359 3d3e
000000c0: 9a2b b3bd 9482 213d 3f28 fe38 83c3 9abe
000000d0: 1256 8c3e 7a6b 6dbe 13fc c0bb 9530 7319
000000e0: 8b3f 6f3e f338 dfbb 6a8c 1abe 7b97 ce38
000000f0: 702c 843e b979 4a3e a613 1e3e 655a 00be
00000100: c1b6 1d35 2bbf b23d 7f2f e13d 2ee6 653e
00000110: eb72 a7bd c560 05be 52af 8ebd 5f4b 963e
00000120: 1ddd 2bbe ebac 653b 7b17 9bbd 0af6 94be
00000130: 2856 873e b17b c43a 763a 4fbe 617c 183e
00000140: 466c 703e 2fed 40bd 3d71 1b3d b401 96be
00000150: ebd8 95be 29a4 4d3e c977 8cb7 991a 283e
00000160: 184a 043d 6180 993d bab9 9cbe 7136 b4bd
00000170: ec60 793e ba12 96be 2d66 d53d 4323 00b9
00000180: 5206 813d 7cab 84bd addf 5f3b 57c9 3b3e
00000190: 3151 4e25 dce3 5a3e fec7 903e e409 64be
000001a0: 153d 9f38 1d14 80be f445 28be 011c bfbd
000001b0: 8f25 913e 9c9e 87b9 35a3 3c3d c220 87be
000001c0: a22c e6bd 0f2e db3d 0994 943e 9768 19bd
000001d0: 01cf 3dbe 1a0d e6bc fb4b 0daf 96a0 7ebe
000001e0: e042 df3d ca19 1abd 1226 c3bd a1d2 a83e
000001f0: cd78 0bbd 183d 6b3d 161b f03d 71ae 9e3d
00000200: 4750 6f3d 2079 193e 582c 973e ff5e 42bd
00000210: 78e9 3c3e 86a1 2abe 9683 82be 1fa0 e7bd
00000220: e03b a53d f006 cfbd 9ace 9d3e e1c8 a53d
00000230: 6a8d 8138 a0c3 9cbe 2652 6cbd 69cd d0bd
00000240: e019 c13d 0d39 9bba 41e3 e5bd 983c 08be
00000250: e6ef 5bbc 1975 553d a1cc 69be 920c 573e
00000260: c825 3fbd bbfc dbbd 32e9 083b 40db 2ebe
00000270: 44a9 f53d 2fc9 8e3e c07a bfbc 1ba8 9e3e
00000280: a696 373e dd08 6d3e 63d2 7abe 773a 123a
00000290: 7a74 923d 58f3 90be 7891 783d 9ccb d9b7
000002a0: 0c4f 443e 3b56 2abe c13a 223e f566 8fbe
000002b0: eb2d 1f2b 6d49 fa3c 0fda 2a3d 0e13 5abe
000002c0: 3689 00bb ac65 15be 89cb 0cbe aa41 17bd
000002d0: fa68 e8bd c54c 07bc 83cd edbd b522 e5bd
000002e0: e8eb 13be be38 16bc 2fc8 603e b370 65be
000002f0: f679 983e 5a24 4ebe 5130 0238 4b1e 5cbe
00000300: 507e 5abc 3e4a f4bc 535f f8b8 8e38 d23d
00000310: 7a59 933d 2624 79be ac30 09be 7ace fe1c
00000320: 1aba 42bc 4f1e 4e3e 6707 973e 3493 a13d
00000330: a42f 8e3e 86e0 02be 41b1 35be b380 6cbd
00000340: 43cb 91a3 09d0 163d bc6f 98be 6048 50bd
00000350: 8886 aa3d 6e3b 0c3d a14d 23be 0845 0abe
00000360: 69a3 08be 252e 463d 9d66 553e e0d3 36be
00000370: 687a a9bd 8c18 c6bd 97bd 7d3e 84c4 2fbe
00000380: 6f73 f83c 400e cc3d d35e b43d 141f 61be
00000390: 9424 64bd 3bec 70be a1ce ffb7 7461 4ebe
000003a0: 7aff 123e 5c42 3f3d 41b7 5b3e 84e2 22bd
000003b0: a8bc 443e 806f 9dbe 368e 39be a2bd 9bbd
000003c0: 1f0e 6abe 4865 803e 995e 93be 1e21 8c3e
000003d0: dd5d ac3d 74e2 12be 1ae9 223e 06da 3dbe
000003e0: ccbf 223c 84c1 06be b9a3 003e 404c 9ebd
000003f0: b197 f2bc f000 cdbd 473a 6fbe 389f d0bd
-0.046518777 -0.09089619 -0.029737053 0.2677212 0.09617282 -0.052838605 0.07912137 0.23156628
0.039193757 0.23169097 -0.04101074 0.30006137 -0.15064009 -0.17964421 0.106120355 -0.257972
-0.120503925 -0.11800055 0.31250787 2.933086e-10 -0.059588306 -0.21744475 0.2466165 -0.06844865
0.119879216 0.22412746 -0.043886542 0.3032731 -0.00026613774 0.1208662 0.28007427 -0.23098478
3.097736e-05 -0.1866271 -0.10715544 -0.09795693 -0.35358804 -0.052118964 0.25009435 0.29472566
-0.19100389 -9.0620524e-05 -0.10262319 0.08658921 0.2800503 0.27089542 0.06872523 0.18491225
-0.08748551 0.03943117 0.0001211916 -0.3022729 0.27409416 -0.2318553 -0.0058894246 1.2572617e-23
0.23364083 -0.006812209 -0.15092626 9.851061e-05 0.25815153 0.19772996 0.15437183 -0.12534483
5.8753e-07 0.08727869 0.10995387 0.22451088 -0.08176216 -0.13025196 -0.069670334 0.2935438
-0.16783567 0.0035045694 -0.07572838 -0.29093963 0.2643292 0.0014990476 -0.20237145 0.14891197
0.23478803 -0.047101196 0.03794979 -0.29298174 -0.29267058 0.20082153 -1.674508e-05 0.16416396
0.032297224 0.074951895 -0.30610448 -0.087994464 0.24353379 -0.29311162 0.10419879 -0.00012220167
0.06300034 -0.064780205 0.003416042 0.18338524 1.789516e-16 0.21375984 0.28277582 -0.22269398
7.593088e-05 -0.25015345 -0.16432935 -0.09331513 0.28348967 -0.0002586738 0.046054084 -0.2639218
-0.11238982 0.10702144 0.29019192 -0.03745326 -0.18535997 -0.02808242 -1.2850869e-10 -0.24865946
0.10901427 -0.03762225 -0.09528746 0.32973197 -0.03405075 0.05743131 0.11723916 0.07748116
0.058426168 0.14987612 0.2952602 -0.047453877 0.18448436 -0.16663179 -0.25491017 -0.113098375
0.08068061 -0.10108745 0.30821687 0.08094955 6.17754e-05 -0.30618 -0.05769553 -0.10195429
0.094287634 -0.0011842564 -0.11224986 -0.13304365 -0.013423895 0.052113626 -0.22831966 0.21000889
-0.04666689 -0.10741564 0.0020890948 -0.17075825 0.119951755 0.27887866 -0.023373961 0.3098763
0.17928562 0.23147912 -0.24494319 0.000557817 0.071511224 -0.28310657 0.060685605 -2.5963229e-05
0.19170779 -0.16634457 0.15842725 -0.28008237 5.655187e-13 0.03055259 0.041711863 -0.21296331
-0.0019613034 -0.14589566 -0.13749518 -0.036927857 -0.11348148 -0.008258049 -0.11611464 -0.111882605
-0.1444546 -0.009168802 0.21951364 -0.22406273 0.2978055 -0.20131055 3.1039413e-05 -0.21495931
-0.013335779 -0.029820558 -0.00011843317 0.10264693 0.07194801 -0.24330196 -0.13397473 1.6861683e-21
-0.01188519 0.2012875 0.29497835 0.07889405 0.27770722 -0.12780961 -0.17743398 -0.057739925
-1.5807016e-17 0.03681949 -0.29772747 -0.050850272 0.08326441 0.034236364 -0.15947582 -0.13502896
-0.13343586 0.04838385 0.20839925 -0.17854261 -0.082753 -0.09672651 0.24779354 -0.17164809
0.03032848 0.099636555 0.08807149 -0.21984512 -0.055698946 -0.23527615 -3.0494588e-05 -0.20154363
0.14355269 0.046694145 0.21456625 -0.039766803 0.19212592 -0.3074913 -0.18120655 -0.07604529
-0.2285695 0.2507727 -0.2878311 0.27369016 0.084163405 -0.14344198 0.15909234 -0.185402
0.009933423 -0.13159758 0.12562455 -0.07729387 -0.029613348 -0.100099444 -0.23362075 -0.101866186

enc.bias f4 [64]
00000000: e476 39bd 1b56 a9bd b3fa e1bd 62a3 c5bd
00000010: 7767 453e 49ee 043e e805 9bbc d201 85bd
00000020: b851 703e 9a9d fa3d c683 893d 484f f53d
00000030: 7116 1b3e c344 6bbe 544c 39be 8c7c 8b3e
00000040: 3a35 213e 7d96 ff3c a321 833e 51e7 903e
00000050: cefd 973d 456b 1c3e 2e31 c93d 7c0a 1ebe
00000060: e81f 6a3e 2705 153e 2b74 91be 6cb6 a8bd
00000070: 370a 873a 98af 49be 823c 4d3e 1b2f 9e3d
00000080: 64c4 8c3e f237 65be 60b0 88be 8c1f 83be
00000090: c8d3 2f3c 9f1c 3abe 36d8 4c3e 4990 603e
000000a0: e547 853e 27cc 37be f955 9b3e e777 1abe
000000b0: d9ea 603e 006c 083e b500 4dbe f7ad b23c
000000c0: 9811 a1bd 7c21 1e3e f9ec a23e e51e 903e
000000d0: 97ea 22be 7913 82bd 7a19 293e 677b 23be
000000e0: 9c6e ec3d 394a 48bd ae46 90bb c46d 1c3e
000000f0: 1671 b13d d6e2 68be 10bb 4d3e 5adf ba3d
-0.0452794 -0.082683764 -0.11034145 -0.096503034 0.1927775 0.12981524 -0.018923715 -0.06494488
0.23468673 0.12237091 0.06714587 0.11978012 0.1514528 -0.2297545 -0.18095523 0.2724346
0.1574296 0.031199688 0.256116 0.2830148 0.07421456 0.15275295 0.098238334 -0.15433687
0.22863734 0.14552747 -0.28408942 -0.08237919 0.0010302727 -0.1969589 0.20042613 0.077238284
0.27493584 -0.22384623 -0.26697063 -0.25610006 0.010731645 -0.1817498 0.20004353 0.2193004
0.26031414 -0.17948972 0.3033903 -0.15084802 0.21964587 0.13322449 -0.20019801 0.021811469
-0.07864684 0.15442461 0.3182142 0.2814857 -0.15909801 -0.0635137 0.16513625 -0.15965043
0.115445346 -0.04889891 -0.004402957 0.15276247 0.086641476 -0.22742781 0.2009089 0.09124632

attn.lin_key.weight f4 [64, 64]
00000000: e894 40bc 65bb c0bb 11cc 2abc 0cb6 6abc
00000010: b7b0 1dbc d83d 92bc e050 bbbc f3f5 d03a
00000020: 32ed 48bc 8695 13bc 6dec c73c 944b 803a
00000030: 4190 baba 94b9 09bc cc2d 523d b702 a83c
00000040: 6304 03bd c40c f6bb 7d14 9a3c b143 0d3c
00000050: 5008 4abc c6f1 a33c d15d 5f3d 4c17 d43c
00000060: 14a4 b93c 7a0b 3bbd 5750 b9bc 1e22 d3bc
00000070: b6b6 04bd a87d 69bc f4f1 4dbd d255 22b9
00000080: 134e a9bc c573 56bd 33af b33c ad05 0b3d
00000090: 66be 443d 4dae a1bc ce27 bdbc 3420 213d
000000a0: 4767 2d3b 9378 f83a 31f5 103d f2c0 0f3d
000000b0: 064c 67bc a292 cd3c 5357 7f3c 5c5c 0fbc
000000c0: 7676 16bd 2134 e33c 0152 e2bc f2d6 d03c
000000d0: 9411 293c 4b4f f1bb b140 6e3d c825 93bc
000000e0: e145 21bd a85b f2bb d89a 523c be0c 293c
000000f0: dbbd 013d 76d0 e9bc 8ba0 ad3c e236 48bc
00000100: 6eb0 61bc 59f4 9c3c 5fdb 26bc 786b 09bb
00000110: 29f5 bfbc 52fe afbb 22fb 56bc c592 073c
00000120: bd84 b33c 67d1 e5bb 300e e7bc 1b82 0ebd
00000130: 6d6c 0f3d 0b73 7ebc e30a 013b 0ee7 e33b
00000140: 3150 63bc 7e34 fabc e2ee c6bc 6de0 423c
00000150: 393d 27bc ef25 383c 289c 28bb 481b ac3c
00000160: f5e7 953c 471a 1ebd 7dd0 f33b caf5 a1bb
00000170: 7579 01bd 7028 06bc 2544 82bc b549 babb
00000180: 19ef 53bd d8f7 27bd 842c 89ba 0890 283c
00000190: 06b5 e2bb b01f 86bc 9247 dabc 1194 b73c
000001a0: 7cf8 dc3b 9753 4fba e2f6 eb3c b4b9 9e3c
000001b0: 7534 52bb 453f a9bb e7e0 a53b 0f31 a0bc
000001c0: 70fb 0abd 9dc7 f1bb 43c4 8bbc 7f84 503c
000001d0: b27a 093c 16de d23c f8eb 2b3d b19e 85bc
000001e0: 7a14 bcbc 8132 4dbb 723b 043d 4a65 073c
000001f0: dd0e f03c 6171 92bc 2c10 153d 21a9 f2bb
00000200: 538c 20bc e53e 04bc 883a 08bc c718 063d
00000210: 72cd f63c df17 d33c df62 fc3a 46d2 e73a
00000220: 5200 94bb 0b89 b5bb b77e f53c ef2c bd3c
00000230: ce78 ebbc a9fb 80bc 14a7 ef3b e369 2b3a
00000240: 2e3f c4bb 4003 453a 1a0a babc 646c c9bb
00000250: ae42 0abc c46b 013c 1e2e 523d b1d1 433c
00000260: a4ed 3d3c 9c2e 57bb 656c b6bc 5a05 973b
00000270: 70d9 7cbc 86c9 3f3c 0702 9d3c 662e 4abb
00000280: c7eb 1bbd 1a3e 103c 012f a73c ea14 bf3c
00000290: 8a2c 783c ad2b 08bc dafe 2c3c ce3c 813c
000002a0: 6001 1c3c 203e 99bb 1629 73bb 2130 1b3c
000002b0: 1862 5b3c 4ca4 d03b 79ee 93b9 51a8 77bb
000002c0: 0a4d 0bbd a200 133d 01e8 07bc 0bfc 9f3c
000002d0: 5207 c73a 6447 3f3c cd27 b33c 9abc 4fbc
000002e0: dfa3 36bc 7237 9539 574f 563c 16ab a0bb
000002f0: 0e71 d43c ef17 1bbc 38b5 8f3b f495 1bbb
00000300: 5edf 0e3c 1080 1c3c 55c3 7e3c 1186 9c3c
00000310: 1731 4a39 a8dd a23c 3f09 9b3c 8e10 05bc
00000320: 5279 043c 2536 553c a1bd a7bc 73d8 d6b9
00000330: 1f76 433c 5369 373c 93ff 24bd 8abd aabc
00000340: 57d9 023d cbbe cd3b 9d75 aabc e2ad 9abc
00000350: c95c 253c 9652 a4bc a9e9 5abd a68f d0bc
00000360: 9f92 c2bc 2a2b 353d 403b bf3c 7be7 143d
00000370: 17c7 113d c000 343c d201 3b3d 3cb8 2abb
00000380: 0061 ad3c ef51 4f3d 1d33 d3bc 55f3 0cbd
00000390: afde 2abd 7af9 b33c e214 cb3c 9fce 0fbd
000003a0: e2cf 14bc e01a 9bb9 4aaf 17bd 3901 f9bc
000003b0: a902 8b3c ae04 cfbc f679 1abc 77f4 733b
000003c0: b693 193d 151b b7bc 835b b33c 794f b5bc
000003d0: cc6a acbb 745b bd3b 50c7 62bd e2e1 a53c
000003e0: 620c 043d 75da 0a3c 9413 d1bc 8bc6 17bc
000003f0: ee92 08bd 720f ed3c c9ba c0bc d7fa e73b
-0.011754252 -0.005881714 -0.01042463 -0.01432563 -0.009624652 -0.017851755 -0.022865713 0.0015942439
-0.012263583 -0.009007817 0.024404729 0.0009788149 -0.0014233665 -0.008406062 0.051313207 0.020509107
-0.031986605 -0.007508846 0.018808598 0.008622096 -0.012331083 0.020012747 0.05453283 0.025890015
0.022661246 -0.04566524 -0.022621317 -0.025773104 -0.03240081 -0.01425115 -0.050279573 -0.00015481494
-0.020667112 -0.0523565 0.021934127 0.03394096 0.04803314 -0.019736433 -0.02309027 0.039337352
0.0026459263 0.0018956832 0.035390083 0.035096116 -0.0141172465 0.025094334 0.015584785 -0.008750048
-0.036734067 0.027734818 -0.027626993 0.025493119 0.010319132 -0.007364189 0.058167163 -0.017962351
-0.039373282 -0.00739618 0.0128543 0.010317979 0.0316752 -0.028541785 0.021194717 -0.012220116
-0.013774974 0.019159483 -0.010184138 -0.0020968597 -0.023432331 -0.0053708935 -0.013121398 0.008274739
0.02191388 -0.007013488 -0.028205007 -0.034792047 0.035015512 -0.015530358 0.0019690327 0.006955034
-0.0138741 -0.030542608 -0.02428383 0.011894328 -0.010207468 0.011239513 -0.0025727842 0.021009102
0.018299082 -0.03859928 0.007440625 -0.0049426304 -0.03160997 -0.008188352 -0.015901634 -0.005685056
-0.051741693 -0.041007847 -0.0010465537 0.010288246 -0.0069185523 -0.016372532 -0.026645456 0.02240947
0.006743489 -0.0007908879 0.028804246 0.01937566 -0.0032074724 -0.005165013 0.005062211 -0.019554643
-0.033931196 -0.007378532 -0.017061358 0.012726902 0.008391069 0.025740664 0.041973084 -0.016311022
-0.022958983 -0.003131062 0.032283254 0.008263895 0.029303962 -0.017876329 0.036392376 -0.0074054156
-0.009799081 -0.008071636 -0.008314736 0.032738473 0.03012726 0.025768219 0.001925554 0.0017686568
-0.0045166397 -0.0055400184 0.029967649 0.023092715 -0.028744128 -0.015745 0.0073136184 0.00065389107
-0.005988977 0.0007515438 -0.022709895 -0.0061469544 -0.008438749 0.0078992285 0.051313512 0.01195185
0.0115923025 -0.0032834178 -0.022268483 0.0046087923 -0.0154327005 0.011705762 0.019166006 -0.003085041
-0.03806665 0.008803869 0.020408155 0.023325402 0.015147338 -0.008311194 0.010558808 0.015776064
0.009521812 -0.0046765953 -0.0037103347 0.009471924 0.013390087 0.006367242 -0.000282157 -0.0037789533
-0.034009017 0.035889275 -0.00829506 0.019529363 0.0015184677 0.011674736 0.021869564 -0.012679243
-0.011147468 0.00028460805 0.0130804395 -0.0049032075 0.025932815 -0.009466155 0.0043856166 -0.0023740502
0.008720247 0.009552017 0.0155495005 0.019106897 0.00019282509 0.019881085 0.018925307 -0.008121623
0.008085566 0.013013397 -0.020476164 -0.00040978528 0.011930018 0.011194545 -0.040282797 -0.020842332
0.031945553 0.006278848 -0.020808036 -0.018881742 0.0100929225 -0.020058911 -0.053445492 -0.025459122
-0.023751555 0.044230618 0.023343682 0.03635357 0.035590257 0.010986507 0.045656033 -0.0026049754
0.021164417 0.050615247 -0.025781209 -0.034411747 -0.041716274 0.021969546 0.024790231 -0.03510916
-0.009082766 -0.00029583927 -0.037032403 -0.03039609 0.016969042 -0.025270786 -0.009428492 0.003722457
0.037494384 -0.02235178 0.021894222 -0.022132622 -0.0052617546 0.0057787243 -0.05536586 0.02024931
0.03223837 0.008474936 -0.02552203 -0.009263645 -0.033343248 0.028938029 -0.023526566 0.007079463

attn.lin_key.bias f4 [64]
00000000: 5ed9 9eb1 6479 2eb3 ede2 30ba ea7e 27ba
00000010: a090 f133 bd77 ea33 d31b b2b8 9e35 3f32
00000020: d08d 77b0 37bc 27b7 001a 22b3 136d d6b3
00000030: 6823 1834 afde c332 f88c 59b1 fec4 9037
00000040: c7b8 c431 65af 332f 4ba2 8e30 612e 81b1
00000050: b5f1 d9b0 c6b1 c3b6 fd68 3a39 7d33 86b6
00000060: 5bd8 2d32 052a 2b39 2139 d039 6abe c9b3
00000070: 5008 e732 4022 063a 12c3 a6b0 50bb 61b6
00000080: 7124 30ba cd11 b3b1 2d3e e430 861e 4f38
00000090: 6e4f 0eb2 fbb4 1e39 8a2b 9d38 a4e7 28b9
000000a0: eac5 05b1 4cc9 ddb1 0315 0a33 9860 962f
000000b0: dfaa 2731 d55b 4eb2 8682 12b1 776b 1d31
000000c0: 5596 ecb4 8c7a 8eb1 39d6 5f31 7efb 0d32
000000d0: 310d da36 c355 47b6 0f4b aeb9 84c6 a530
000000e0: cf05 88b2 80cf 6132 1d4d 68b9 7b36 98b3
000000f0: 75e0 5f31 4b05 6bb8 c912 ab31 4d86 8db6
-4.623117e-09 -4.0622936e-08 -0.0006747682 -0.0006389456 1.1248744e-07 1.09182544e-07 -8.492884e-05 1.1129854e-08
-9.0059604e-10 -9.997798e-06 -3.774221e-08 -9.984992e-08 1.4168984e-07 2.2802253e-08 -3.1657788e-09 1.725787e-05
5.7253575e-09 1.6342268e-10 1.0377986e-09 -3.759667e-09 -1.5857525e-09 -5.8321484e-06 0.00017777453 -3.999505e-06
1.0119119e-08 0.00016323484 0.00039715416 -9.394428e-08 2.689572e-08 0.0005116798 -1.2133532e-09 -3.3636643e-06
-0.00067192974 -5.2116094e-09 1.6606855e-09 4.9381073e-05 -8.283548e-09 0.00015135475 7.494453e-05 -0.00016108021
-1.9466548e-09 -6.4548313e-09 3.214974e-08 2.7353475e-10 2.4398827e-09 -1.2011658e-08 -2.131999e-09 2.2907594e-09
-4.4067806e-07 -4.146676e-09 3.2572542e-09 8.264463e-09 6.498442e-06 -2.970323e-06 -0.0003324379 1.2061752e-09
-1.5835125e-08 1.3143904e-08 -0.00022153971 -7.0879615e-08 3.257836e-09 -5.6033296e-05 4.9788906e-09 -4.217762e-06

attn.lin_query.weight f4 [64, 64]
00000000: f9be c139 cab1 d23b 44ef 753d 479d 9cbc
00000010: 441a 093c 70f7 2bba dcd4 b53d afb6 d73b
00000020: e576 233d fceb bcbb 1ea2 663d a955 273c
00000030: 5093 c2bb c322 73bb a7ed 8abc b051 a4bb
00000040: 14b7 db3c 512e 213d ef0d 66bd 4f7b 36bd
00000050: f5e2 92bc bb47 383d 2caf 473d b5e2 0abd
00000060: d088 2f3b 7cee b6bc 34f8 c03b 1a20 de3c
00000070: 11e5 74bd 8c47 e8bb 5213 ac3c 2e60 18bd
00000080: b7bb 8fbd 8647 67bd d376 213c 9ba4 62bc
00000090: 477a b3bb f79b 8fbd e573 bdbc 453e f7bc
000000a0: 9268 4cbc 9832 ccba 83fa cabc 85dd 183d
000000b0: 3a15 28bd fa03 3bbb 84eb 6b3d 9151 aebc
000000c0: 8ac0 7f3d 2428 913d 3723 52bd ef47 c33b
000000d0: 8822 fe3c 394c f135 e77f c5bc 4819 b0bc
000000e0: 814d c5bd f0a2 393d 9c46 54bc b7f9 31bd
000000f0: 3dc8 5fbc 8147 143d a892 fcbc 7b27 8bbd
00000100: 4c5f f33b a975 593c 113b 693c 9f56 c73c
00000110: 5e2e 4fbc 4b2e 963c 8eab ed3b 128f 25bc
00000120: 97f5 96bc 2150 c6bc 385a 0fbd 7817 f03c
00000130: 2a82 103c afff ad3b 1728 b23b d0c5 00bc
00000140: 1d14 d5bb 6415 013b ea79 80bc 61da 99bb
00000150: 2bc6 4ebc d219 7fbc f87d 433c 3ac9 b4bc
00000160: f69b c4bb 4a31 eeba 1bf3 273a 7baf c03c
00000170: 74aa d0bb 074e 58bc 6448 ad3b 7516 73bc
00000180: 655e a03c 48f8 60bc d605 16bc c7e5 a3bb
00000190: 5a79 0ebb 52b9 b9bc 246a 633c 09df e93b
000001a0: 0749 d03b 5dc0 353a 47b3 ce3b 824c 473c
000001b0: eff8 4b3c b9d5 65bb 91fb 303d 1233 64bc
000001c0: 3b27 1f3d c371 d1bc c70a 71bc 6c4a 4fbb
000001d0: 8a7b 443c 9f82 043c 4d48 12bc 9d2c 083c
000001e0: 5163 02bc 0b13 bc3c eac5 31bb ffec 99b9
000001f0: e3ec d1bb e7a2 613c 029a 85bb 456f fbbc
00000200: c277 3f3c 429f 443b 9e08 b93b 01b8 293d
00000210: 0532 8e3b 26c7 c73b 5537 503c e46d ceba
00000220: 6e0a f03c 6b8b 80bc 06af 173b e22d 143d
00000230: 11fe 203c 7510 a23b 977c adbc a01a 0cbb
00000240: 82e7 123a a0f8 d63b eae8 04bc 34fe 55bc
00000250: 1d88 ebbb 5c01 e7bc 9bad 9d3c e13f 88bc
00000260: da49 31bb f21a bdbb 7e1b 0cbc 23a0 623b
00000270: ae47 d2bb 5d78 3e3a e6d7 2e3b 9fb8 65bb
00000280: 77bd b7bb f2a1 fabc 3c06 0abc 7822 803b
00000290: e29c c8bb c912 58bc 531c 683b 7261 5f3c
000002a0: 780b 0ebc 962e 39bc 7881 d73b b5df d33b
000002b0: 94e8 ce3b 46f4 903a ffb8 0dbd f44e 933b
000002c0: bbc1 693d d3a3 1e3c f2b9 aebb ace0 c23b
000002d0: d681 263c 18fb 313a df40 47bc 9d6c 503c
000002e0: 0bd0 8bbc 9343 e73b 810c a13b 4892 793b
000002f0: c149 0e3c 9cdb b73b 81c0 0a3d 8a22 17bd
00000300: c1c8 7abd 8a81 223c e86e e3bc a2e2 ba3b
00000310: 4e2b e13c c9dc 69bb 6d6a 28bd 79f8 343b
00000320: 1da1 43bd 193c 543c 4d94 3b3d dc5f 74bd
00000330: 1483 003d 0dad 3fba ccae 9bbc 1070 6b3b
00000340: 94b4 ef3c 86e1 89bc e84e ea3c 214a 1d3c
00000350: 20a0 b53a e0b6 663d e56a e0bb 428b 33bd
00000360: 94e4 613a 8105 7b3c 6331 03bc 0639 25bd
00000370: fc0d 8fbb 736b 273b 9e4c d43b 291b 423c
00000380: 74e2 8e3d 9f8e af3b 72da 95bc e2c6 8bb7
00000390: f141 3cbb e20a 973d 6c04 44bc d9af d83b
000003a0: 0ea9 0cbd 6f79 993d 5ab4 d7bb bfea afbc
000003b0: 2746 3bbd 7c2f 8d3a d74d 0e3d 10d1 1a3c
000003c0: f9f7 873c 390d 013d a561 fb3c 0af5 88bc
000003d0: 7f00 7cbc 67e0 caba aaab 383b c1dd 21bd
000003e0: 8c9a 843d 6922 8abd 0172 593c 8a39 42bb
000003f0: 659c f9bc 6255 3bbc a25c a73c 4554 be3c
0.00036954114 0.0064298855 0.060042635 -0.019117964 0.008368079 -0.00065600034 0.0887849 0.006583057
0.03990831 -0.005765436 0.05630695 0.010213294 -0.005937971 -0.0037099577 -0.016959025 -0.0050146207
0.026820697 0.03935081 -0.05616563 -0.04455119 -0.017930487 0.044990283 0.04875104 -0.03390761
0.0026784427 -0.022330515 0.005888963 0.027114917 -0.059788767 -0.007088607 0.021005306 -0.0372011
-0.07018226 -0.056464694 0.00985499 -0.01383319 -0.005477223 -0.0701217 -0.023126552 -0.03018106
-0.012476103 -0.0015579043 -0.024777656 0.037320632 -0.04103587 -0.0028536306 0.057597652 -0.021279128
0.06243948 0.07087734 -0.051303115 0.005959503 0.031022325 1.7978083e-06 -0.02410884 -0.02149643
-0.09633923 0.045321405 -0.012956288 -0.043451037 -0.01365858 0.036201004 -0.03083165 -0.0679464
0.0074271318 0.013272681 0.014235274 0.024333296 -0.012645332 0.018332621 0.007253117 -0.010104911
-0.018427653 -0.02420813 -0.03499815 0.029308066 0.008820096 0.005310021 0.005436908 -0.007859662
-0.006502642 0.0019696588 -0.015683133 -0.0046952222 -0.012620489 -0.015570121 0.011931889 -0.022068609
-0.0060000373 -0.0018172648 0.000640677 0.023521176 -0.006367976 -0.013202197 0.0052881707 -0.014836897
0.01957626 -0.01373107 -0.009156665 -0.005001757 -0.0021739812 -0.022671375 0.013880286 0.0071371836
0.006356362 0.00069332664 0.0063079926 0.012164237 0.012449487 -0.0035070016 0.043208662 -0.013928192
0.038855772 -0.025566941 -0.014712042 -0.0031630052 0.011992345 0.008087783 -0.008928371 0.008311418
-0.007958249 0.0229583 -0.0027126023 -0.0002935901 -0.006406413 0.013771749 -0.004077197 -0.030692706
0.011686267 0.0030002152 0.005646779 0.041435245 0.004339459 0.0060967384 0.012708505 -0.0015749303
0.029301848 -0.01569148 0.0023145094 0.03617657 0.009826199 0.0049458095 -0.021177573 -0.0021378174
0.00056039554 0.0065604 -0.008112172 -0.013061095 -0.007187857 -0.02819889 0.01924782 -0.016632022
-0.0027052076 -0.0057710344 -0.0085514765 0.0034580312 -0.0064172363 0.00072658603 0.0026678978 -0.003505267
-0.0056073028 -0.0305948 -0.008424338 0.003910359 -0.0061222175 -0.0131880725 0.0035417273 0.013634073
-0.008669727 -0.011302611 0.006576713 0.006465877 0.0063143466 0.0011059127 -0.034600254 0.004495496
0.05706952 0.009682613 -0.005332225 0.005947193 0.010162791 0.000678943 -0.012161463 0.012721208
-0.017066976 0.007057616 0.0049148207 0.0038081575 0.0086845765 0.0056108963 0.033874992 -0.036898173
-0.06122661 0.00991858 -0.027762845 0.0057032863 0.02748647 -0.0035684577 -0.04111712 0.0027613922
-0.04776107 0.0129537815 0.045795728 -0.05966173 0.031375006 -0.00073118584 -0.019004248 0.0035924949
0.029260911 -0.01683117 0.028602079 0.009600193 0.0013856925 0.056326747 -0.0068486803 -0.04383398
0.00086171296 0.015321136 -0.00800738 -0.040337585 -0.0043656807 0.0025546222 0.00647886 0.011847296
0.06976786 0.005357578 -0.01829264 -1.6662703e-05 -0.0028725828 0.073751226 -0.011963945 0.0066127595
-0.03434091 0.07493865 -0.006582779 -0.02147424 -0.0457212 0.0010771598 0.034742203 0.009449258
0.016597735 0.03150675 0.030686209 -0.016718406 -0.015380978 -0.0015478254 0.0028178492 -0.03951812
0.0647479 -0.067448445 0.01327181 -0.0029636347 -0.030470083 -0.011433931 0.020429913 0.023233542

attn.lin_query.bias f4 [64]
00000000: d484 4abb e60e 823b da37 ae3b 0805 32bd
00000010: 7822 08bd f2d9 01bd fe7b b83c b971 993b
00000020: 13b9 c43c 52f4 19bd 3391 36bc 1d1a c33c
00000030: 9493 9ebc 645b e43c e765 1cbb 5744 9d3c
00000040: 0483 ddbb 303c 54bd 1b80 2bbb cc92 18bd
00000050: f826 78bd 2639 8e3c edf3 12bd a415 60bc
00000060: e77a b6bb d71f 223b c65c 8e3c 8e40 6dbb
00000070: 6ff1 573d 12d8 b8bc 9e58 f43c 0b75 123c
00000080: fc62 b939 800f 14ba d617 553d f926 bbbc
00000090: ff82 153d 5774 823b 7a62 32ba 4158 a03a
000000a0: ff12 bd3c 20da e6ba 2c26 c3bb f7c3 893d
000000b0: bc07 6fba 5616 413c e397 d839 35bb ebbb
000000c0: 68e4 8ebd b450 793d 5912 923d 9327 e6bd
000000d0: 1fbf 5abd 7024 923c 5557 5d3d 312e b73c
000000e0: 88b4 2abd db69 213d 08e8 08bd 1594 8b3d
000000f0: a8b4 a73a 3606 20bd a144 acba ab42 2c3b
-0.0030901926 0.003969061 0.0053167166 -0.04346183 -0.033235997 -0.03170199 0.022520062 0.0046827463
0.024014032 -0.037586518 -0.011143017 0.023816163 -0.01935748 0.02787561 -0.002386445 0.019197626
-0.006760003 -0.05181521 -0.0026168886 -0.03724937 -0.06058404 0.017361235 -0.035877157 -0.0136770345
-0.0055688503 0.0024738216 0.017378222 -0.0036201808 0.052720483 -0.022563968 0.029827412 0.008939038
0.000353597 -0.00056480616 0.052024685 -0.022845732 0.03650188 0.003981154 -0.0006804835 0.0012233333
0.023080347 -0.0017612614 -0.005955478 0.067268305 -0.0009118279 0.01178511 0.00041311895 -0.0071939477
-0.06977159 0.06086798 0.07132406 -0.11238017 -0.053404924 0.01783964 0.054038364 0.022360893
-0.041676074 0.039407592 -0.033424407 0.06815354 0.0012794929 -0.039068423 -0.0013143012 0.0026284854

attn.lin_value.weight f4 [64, 64]
00000000: 4cc2 5c3d 60b7 fbbc b9db f7bd ffa7 ae3d
00000010: 8fc0 f3bb 3768 e03c f489 233a d4e1 f3bd
00000020: 5341 ef3d 822f 013e 354c b4bd aefe bd3d
00000030: 0054 bbbc 5c43 49bd 17c9 45bd 90b2 8abc
00000040: c7fa 1cbd 9e70 873d a608 45bd e5a1 b73d
00000050: a03a e23d a667 80bd 60c6 1ebc a07a bcbc
00000060: 6d35 b93c 0d74 89bd 681f 473d ef7f 963d
00000070: 1967 70bd b07e 4f3d 2c29 9a3d a0fd dc3d
00000080: 1976 46bd bd09 19bd 7140 d03d 1261 e8bd
00000090: ef5b c7bd 017d d63d e1b1 46bd 4060 b13d
000000a0: 23d9 9d3d c1fa ccbd e5aa 46bd 059f eebd
000000b0: b670 3dbd 1495 91bb bbf9 eebd 52c8 0ebd
000000c0: 8d4c 603d aef2 fdbc 44f8 b5bd 7de0 8a3d
000000d0: cc9b 863c 17e0 ad3d 60ac 8dbd 0522 94bd
000000e0: cb5e 0ebd a0b5 ba3c 4df2 ebbc 4ba9 cfbb
000000f0: 6124 1bbd 599f 8cbb 087c e4bd f374 d4bd
00000100: ca14 0f3d befd ca3d b809 c1bc 76f0 3b3d
00000110: 3bcf e9bc 5861 b03d c990 0f3d 6658 b2bb
00000120: d83d a43d 712b d93d bb5f c93d dab0 86bd
00000130: 1dfd f4bc c6ea 3a3d e41f d8bd e021 d3bc
00000140: f72c f33d 4640 193c 18fe a3bd dfff d9bd
00000150: f4e9 ef3d f038 a13c fa27 99bd 4e11 cb3d
00000160: 7b2a 9abc 6f46 e23d 5460 0dbd 97b6 e9bd
00000170: c3b0 383d 44b0 aa3d 95c8 63bd 02f0 60bd
00000180: 21a1 a8bd 4dd0 b8bd da39 e13c 78f2 adbd
00000190: eb1c 003d e1cb d5bd 77e5 2dbd 47bf a03d
000001a0: 0692 853d a883 2fbd 644c cebd 70ae 00be
000001b0: 79dd a03d 799e 36bd 1ff9 c03c b934 2cbd
000001c0: f935 6b3d 3b64 df3d e867 acbd 0b3d f5bd
000001d0: 3d80 14bd f7c3 45bb 0c1a b33d 70dd d43c
000001e0: 870a 513d 31ac 96bd ef99 86bd 9fba c43c
000001f0: 20ba 96bd faf0 26bd d22e 30bd 4d8b 163d
00000200: 6fd7 a0bd 63cf c93d 67c7 cb3d 0ace a53d
00000210: a822 4cbd c55a c6bd 0065 d33c 7e60 213d
00000220: d0b4 683d b657 07bc 7e29 bb3d eb0b 96bd
00000230: 504f 813b f3df adbb 093d 05be 95d8 6fbc
00000240: 410a a73c 6f88 acbd 4ace c8bd 06e9 bb3c
00000250: b230 983d 240c 92bd 823a cd3d c06e 4abd
00000260: 0de7 4bbd a2f9 40bd c37e ef3d 4ccf 8f3d
00000270: 8b0d 1c3d 7ddf 57bd feef 563b b1ed 73bd
00000280: 6f5b aebd 8123 80bd a385 93bc 0d20 dabd
00000290: e07f 123d 29a1 82bd 52c1 59bd 6020 8a3d
000002a0: b202 a93d b1d2 cebd f89f d9bc f908 e2bd
000002b0: c6d6 b03c b6c5 523c c79e 00be b6f0 c73d
000002c0: 2ea4 8c3d a352 413b a742 ae3d 6372 b9bd
000002d0: b0d4 12bd 84b1 91bd 4d5e 08bd 6ec7 f63c
000002e0: 265d b03c 9d06 d23d 750c 8fbb 6f76 c23d
000002f0: 6893 a53d 0805 0b3d 67c4 833d 185e cb3c
00000300: 3fdf aa3c 09fd 363d 45d1 bc3d 7279 8c3d
00000310: f812 c4bd 252d c0bc d587 573d b201 1b3c
00000320: a38e 193d f35c e43d b081 a03c cffa 943d
00000330: 6b8c 51bc 4af5 32bc 9bfa b23d 29ac dbbc
00000340: f7d3 aebd 62de e3bd ecaa 1c3d ab53 6fbd
00000350: b818 a2bd 9f7b 84bd a338 8ebd a34f 7a3d
00000360: 739d 0a3d 7118 e13c 5cd8 943d dff9 2e3d
00000370: b9a9 83bd fbe8 85bd 7e6f 36bb dd59 79bc
00000380: 1e46 d2bd f192 993d 9f62 aabd 6672 fbbc
00000390: 80b3 ecbc 44d8 c83d 6f0f c43d a998 a33d
000003a0: 9861 233c 3441 013e d775 b9bd c4a2 813d
000003b0: 0da9 c9bc f4fd 113c df5c af3d fb3e 183c
000003c0: 791d 0dbd 5e38 aa3c 6b28 a13d 4408 dabc
000003d0: bb38 383d 4366 87ba d60d 6cbb f9b7 63bd
000003e0: ab44 143d 3cb7 dfbd b35b 9d3d 096a b8bd
000003f0: 183f 6abd 0d3f e63c 746e 8fbc 0258 233b
0.053896233 -0.030727088 -0.12102456 0.085281365 -0.0074387263 0.027393444 0.0006238513 -0.11908308
0.116823815 0.12615779 -0.08803598 0.09277092 -0.022867203 -0.049136505 -0.048287477 -0.016930848
-0.038325097 0.06613277 -0.04810395 0.08966426 0.11046338 -0.06269769 -0.009690851 -0.02300769
0.022608483 -0.06711588 0.048613936 0.0734862 -0.05869207 0.050657928 0.07527384 0.10790563
-0.04845247 -0.037362803 0.10168541 -0.1134664 -0.09734332 0.10473061 -0.048509482 0.08660936
0.07707431 -0.10008765 -0.04850282 -0.11651424 -0.046250068 -0.0044428203 -0.11668726 -0.03485901
0.054760505 -0.030999508 -0.088852435 0.06781099 0.016431712 0.08490007 -0.069176435 -0.07233051
-0.03475837 0.022791684 -0.028802061 -0.00633732 -0.03787649 -0.0042914567 -0.111564696 -0.10373869
0.034931935 0.09911679 -0.023564205 0.04588362 -0.028541198 0.08612317 0.035050187 -0.005442667
0.08019608 0.10603989 0.09832712 -0.065767005 -0.02990585 0.045634054 -0.10552958 -0.025772989
0.11873811 0.009353703 -0.08007449 -0.10644507 0.11714545 0.01968047 -0.07478328 0.0991541
-0.018819084 0.110485904 -0.034515694 -0.114117794 0.045090448 0.08334401 -0.05561121 -0.05491639
-0.08233858 -0.09024105 0.027493406 -0.08493513 0.03127758 -0.104392774 -0.042455163 0.07848983
0.065219924 -0.042850167 -0.10073164 -0.12566543 0.078547426 -0.044584725 0.02355629 -0.042042468
0.05742452 0.10907789 -0.08418256 -0.11974534 -0.03625511 -0.0030176619 0.087452024 0.025984496
0.05103543 -0.07357062 -0.06572329 0.02401477 -0.07359719 -0.040757157 -0.0430134 0.03675394
-0.07853591 0.09854009 0.09950142 0.080959395 -0.04983774 -0.09685282 0.025804996 0.039398663
0.05681306 -0.008260658 0.091387734 -0.07326492 0.0039462224 -0.005306238 -0.13011564 -0.0146390395
0.020390632 -0.0842446 -0.098049715 0.022938263 0.07431163 -0.07131222 0.10020925 -0.049422026
-0.049780894 -0.04711307 0.116941 0.070219606 0.038098853 -0.05270337 0.0032796855 -0.059552852
-0.08513533 -0.06256772 -0.018008059 -0.106506445 0.035766482 -0.06378395 -0.05316288 0.06744456
0.08252467 -0.1009878 -0.026565537 -0.11036868 0.021586787 0.012864521 -0.12560569 0.09762709
0.06867252 0.0029498718 0.08508807 -0.09055021 -0.035847366 -0.071139365 -0.033293057 0.030124392
0.021528792 0.10255168 -0.0043654987 0.09495246 0.08084756 0.033940345 0.06433945 0.02482514
0.020858405 0.044674907 0.092196025 0.06859101 -0.095739305 -0.023459027 0.052619774 0.009460853
0.037489545 0.11150541 0.01959309 0.072744004 -0.012789826 -0.010922739 0.087392054 -0.02681549
-0.08536523 -0.111264005 0.03824894 -0.0584294 -0.07914871 -0.06468891 -0.06944396 0.061111104
0.03384156 0.027477475 0.0726783 0.042718764 -0.064288564 -0.06538578 -0.002783745 -0.015219179
-0.1026728 0.0749873 -0.08319592 -0.030694198 -0.028894186 0.098068744 0.09573256 0.07988102
0.009971999 0.1262253 -0.09055679 0.06329873 -0.024616743 0.008910645 0.08562636 0.009292359
-0.034451935 0.020778831 0.07869037 -0.02661527 0.044975977 -0.0010330159 -0.003601899 -0.055595372
0.0361983 -0.10923621 0.07683506 -0.090045996 -0.057189077 0.028106237 -0.017508723 0.0024924283

attn.lin_value.bias f4 [64]
00000000: 607f b93c 2b12 b13c 15f3 bfbd de77 c8bd
00000010: 784d d6bd ac0b 0b3c 72ce d03c 07e3 3f3c
00000020: a87f ae3d 8398 ddbc 55fa 953d 4e65 91bd
00000030: 2d2c a9bd 27c5 b4bd 874c eaba dee3 b73d
00000040: 6c59 85bd cb56 663d bdee ab3d 17ee 6abd
00000050: f034 52bc fa52 a73d 1f8c 9bbd b6ce e93d
00000060: 78e5 4bbd 1f69 96bd 31b0 cc3d e015 2c3d
00000070: b93a ebbc 1f7f 983c 7481 69bd 6f1b e03d
00000080: 43c7 99bd 6c71 783d 7160 c7bd b996 74bd
00000090: 6382 303d a05f 92bc b045 b3bc 84fd c5bd
000000a0: fd50 99bd d03f 563c ffa1 123c 04cc 25bc
000000b0: 5cf6 84bd 30cb 41bd 9bf5 83bd 1e31 cb3d
000000c0: e19f c73c db62 dfba 4d3c 72bc 4b56 793d
000000d0: 1a9a ac3c 0e56 b73c 577d 8cbc b320 4939
000000e0: 947e 54bd ed26 433d 02ca 62bc 0066 01bc
000000f0: cd5e d1bd 3c77 0b3d fd05 88bd c74b aa3a
0.022643745 0.021615108 -0.09372536 -0.09788488 -0.10463995 0.0084866695 0.025489066 0.011711842
0.08520442 -0.027050262 0.07323138 -0.070994005 -0.08260379 -0.08826666 -0.001787559 0.08979009
-0.065111965 0.056235116 0.08395145 -0.057355966 -0.012830004 0.081701234 -0.07595085 0.1141638
-0.049779385 -0.07344269 0.09994543 0.04201305 -0.028714525 0.018615304 -0.05700822 0.109427325
-0.07508709 0.060655043 -0.097351916 -0.059714053 0.043093096 -0.017867863 -0.021883816 -0.09667495
-0.074861504 0.0130767375 0.008949756 -0.010119442 -0.06492302 -0.047312915 -0.0644333 0.09921478
0.024368228 -0.0017043011 -0.014784885 0.06087331 0.021069575 0.022379901 -0.01714961 0.00019181035
-0.051878527 0.047644544 -0.013842108 -0.007897854 -0.1022316 0.034049258 -0.06641767 0.0012992554

attn.lin_edge.weight f4 [64, 3]
00000000: cce4 cdbe 5d5f a23e d16e 343e 182d 723d
00000010: 2647 b1b6 6417 f6be 5dc4 57bc d355 d83d
00000020: ac6b 913e c9b2 993e 3642 cdaa 4a1b b43e
00000030: d851 e13d 6579 343d e622 753e a12e 05bd
00000040: 0c24 93bd e0f3 d0be 6f28 1abe e9d3 f13d
00000050: 6bd9 0a3e 3537 ff3e b2fa a2be 496e 44be
00000060: bf50 a1bd cee1 a93d 0eda d23e 6713 383e
00000070: bbb9 04bd 2dc0 a9be 2d30 e63d e87d e9bd
00000080: bb7b 7bbe d36d 63bd d023 813e 4d58 d1be
00000090: 8968 963d fab4 0099 bc53 bbbc 2317 c2be
000000a0: a876 3ebe 5ffd e3be fca0 c4bd f804 3cbe
000000b0: c40d ebbd b519 adbe 4ead 95a8 8462 9e3e
000000c0: bd52 60bd 8f51 3c3d e422 f43e 8df8 78be
000000d0: a57b a2be 7d77 633e ada5 a1bd 86f0 03be
000000e0: e904 363e 4246 e13e 2ce4 56be 42ec e0be
000000f0: 267f 82be 54a6 83ba 5c81 8b3e f2d2 67be
00000100: d11c 25be a283 ae3e 0242 d7be 435f b5ab
00000110: cea1 143e 3ac4 8e3d 7704 04ba c375 fa3e
00000120: e40a b7bc 5ed7 a0bd d906 83be dec9 21be
00000130: 130c 5c3e 55ba da3e dfcc 263e 074a 1f3e
00000140: e053 d03e 285f c43d 3b01 ae3d 74ac 94be
00000150: 95a3 073f 6713 d0b8 e6e7 3b3c 1747 8cbd
00000160: b5ed 533e d367 db3e bb30 103f 47bd 19be
00000170: df12 e23e 2769 cfbe 51a4 56b4 38af 97be
00000180: e27a 543e 93fa 95be 1cc5 24be 28ae 053e
00000190: 8fdd 4f3d 1fd4 ad3e f1e2 d33e d6a4 803c
000001a0: 23cd 17be 3574 95be 5c2b 8bbe d534 d0bd
000001b0: 2bac 68be 4a6a 3129 4650 9a3e 26c9 b53d
000001c0: 2d46 8abe fd25 f53c 35d1 5eb8 5787 f5ba
000001d0: de0b 853e 4432 af3d 4470 1cbd 9f24 423e
000001e0: 41f8 40be 7456 e2bc f550 d93a 3aea b13d
000001f0: c709 913e 733e 633e ea6b f0be 4f9a d3bb
00000200: 7917 3c3d edb0 acbe 0f5e 78bd 9a74 a83d
00000210: a332 f63d 7914 2ead 3ef4 9a3d 72a9 04be
00000220: a601 37be 894b 94be 444d b83d daa5 0bbe
00000230: 5515 f33e 4e2f 8bbe c1ce b31a 9693 97be
00000240: cf20 06be 70c4 d1bc 1659 38bd 6f5c b73e
00000250: 0f55 8b3e 63d1 dcbe c556 b83e 7420 71be
00000260: 4a91 cdbe 4787 0f3f 8615 6a39 fedc d3bc
00000270: 1882 b13e 17e1 94be b2bf d8bd 3776 033e
00000280: 60ed 6fbd 36dd 8cbe cf80 503e dfec a1be
00000290: f5fb 313e 1ba2 43be 1212 c8ba e72e 6abe
000002a0: bc44 23be 88b2 eb3d 69ae fbbd 6a21 30be
000002b0: 5861 e13a a2f8 c8bd 77e4 acbe aaea 5f3d
000002c0: f9e4 663d f0a8 9d3e a5ea dba8 0ebe 8cbe
000002d0: 51f8 073f 326c 189a ed96 b1bd e88f 99bd
000002e0: b3cf c8bd e385 f9bd a78b e73e 1054 823c
000002f0: 8a43 833e 7a0d 5dbd f67b cd1a 0262 ce3e
-0.4021362 0.3171338 0.17620398 0.059125036 -5.283294e-06 -0.4806472 -0.013169375 0.10563245
0.2840246 0.30019215 -3.6461258e-13 0.3517707 0.110019386 0.044061083 0.23939094 -0.032515172
-0.0718461 -0.40811062 -0.15054487 0.11807997 0.13559501 0.49846807 -0.3183189 -0.19182695
-0.07876729 0.08295022 0.41181988 0.17976151 -0.03240369 -0.3315443 0.112396576 -0.11400968
-0.24558918 -0.05552466 0.25222635 -0.4088768 0.07344157 -6.653993e-24 -0.022867076 -0.37908277
-0.18599951 -0.44529244 -0.09601018 -0.1836127 -0.11477235 -0.33808675 -1.6617482e-14 0.30934536
-0.054766405 0.045976218 0.4768287 -0.24313565 -0.31734958 0.2221355 -0.07892928 -0.12884721
0.1777531 0.43998915 -0.20985478 -0.4393025 -0.25487632 -0.0010044076 0.2724713 -0.22639063
-0.16124274 0.34084803 -0.42042547 -1.2887264e-12 0.14514849 0.06971021 -0.00050360657 0.4891797
-0.02234406 -0.07853578 -0.25591162 -0.15799662 0.21488981 0.42720285 0.1628909 0.15555583
0.40688992 0.09588462 0.084963284 -0.2903782 0.5298398 -9.921827e-05 0.011468863 -0.06849497
0.20696147 0.4285265 0.56324357 -0.1501361 0.44155023 -0.40509912 -1.9990081e-07 -0.2962587
0.20750001 -0.29292735 -0.16090816 0.13054717 0.050748404 0.33950898 0.4138408 0.0157036
-0.14824347 -0.2919022 -0.27181518 -0.10166327 -0.22721927 3.9394086e-14 0.3013937 0.08876257
-0.27006665 0.02992534 -5.3123764e-05 -0.0018732351 0.25985616 0.08554509 -0.038193002 0.18959282
-0.18844701 -0.027629115 0.0016579913 0.08687253 0.28327772 0.22191791 -0.46957332 -0.006457604
0.045920823 -0.33728734 -0.060636576 0.08225365 0.12021377 -9.895301e-12 0.07566117 -0.12955263
-0.17871723 -0.2896388 0.08999112 -0.13637486 0.47477213 -0.27184528 7.4366694e-23 -0.29604787
-0.13098453 -0.025606364 -0.045006834 0.3581271 0.27213332 -0.431285 0.360037 -0.23547536
-0.4014991 0.5606579 0.00022323997 -0.025862213 0.34669566 -0.2907798 -0.10583438 0.12838064
-0.058575988 -0.2751252 0.20361637 -0.3162603 0.1738127 -0.19104807 -0.0015264174 -0.22869454
-0.15944189 0.115086615 -0.122891255 -0.17200246 0.0017195148 -0.09813048 -0.33768055 0.054667152
0.05637071 0.30792952 -2.4415645e-14 -0.2748875 0.53113276 -3.1520263e-23 -0.08671365 -0.07498151
-0.098052405 -0.1218374 0.45223734 0.015909225 0.25637466 -0.05396793 8.498628e-23 0.4030915

attn.lin_skip.weight f4 [64, 64]
00000000: b15a a83d d064 973d 77d7 a73d 0c23 52bd
00000010: cdef 1bbb 9fd3 583c a793 77bd 58d3 24bc
00000020: d510 b23d 3e36 c93d 37f7 7cbd 59ff e13d
00000030: f757 bbbd c206 b5bb 5ed3 67bd 58da 143d
00000040: 22b5 88bd c6b2 903d 1031 08bd a412 a1bb
00000050: 49b3 5fbd df00 bc3d d9e3 8abd a28f 63bc
00000060: 35a6 18bd ebc2 e03d 214c 193c 1ce2 85bd
00000070: b4bf 0ebc e15f 78bd 8109 343d e61f c03b
00000080: 9a71 d23d 9bb4 d3bd ae88 74bd f832 b8bd
00000090: fc1b 98bd e764 3c3d 7fa7 a3bd 10e9 a5bc
000000a0: e86a 6d3d 2871 7d3d bf81 303d 1753 fcbd
000000b0: 5cfe a8bb 32db d43c 00c7 a13c a566 f63d
000000c0: f179 febb 0738 953d ec71 c3bd 2628 44bd
000000d0: cc49 143c 6d53 193c ded5 a6bd 9457 4f3d
000000e0: 1a8c 24bd ecfe acbd e187 57bd 120a 88ba
000000f0: 3ddd 563d d3c2 edbd d367 a13d 6227 be3d
00000100: fee6 ac3c 6584 e9bd 2a70 9d3d 7624 9c3d
00000110: 99cd 763d 5114 783d deec f83c da2d 493d
00000120: d283 72bd 30dd 873d 104b 2c3d 7e4c c33d
00000130: 479d 2e3d 47ec eebc 5f3f 0bbd 3105 9cbd
00000140: e139 bdbd 48a7 6f3d c8af 85bd dc6c cc3b
00000150: 56d5 f43d bea0 003e e2ab 9d3d febd a7bc
00000160: 08f6 67bd 2631 b6bc 44f8 0b3c fd74 b33c
00000170: 3818 4ebc 6590 6c3d 172a 183d d607 a9bc
00000180: 1b64 4c3d c2d8 4a3d 07cb 6e3d 3afc c23c
00000190: ad20 eebc f17a 003e 5556 3c3d 2c2b 2c3d
000001a0: edc3 a8bc 3b65 85bc 6162 ecbd 0e75 853d
000001b0: 5c59 6c3d be51 033d 7ffd 963d 7760 babd
000001c0: 7ebb 27bc c399 bbbd 8c0d 9c3d c507 463c
000001d0: 3736 cfbd eaa7 efbd 9bcb 5dbc e219 7c3c
000001e0: c064 babc 2cd0 183d 00c6 ebbd f722 55bb
000001f0: 64d1 2e3d b4d0 e8bd a001 593d 1257 903d
00000200: e354 01be 71b1 7bbc 4d81 9ebd 28b5 663b
00000210: df69 c63c 5f97 6b3d cd8c d8bc dc7b 61bd
00000220: bc9d d5bd 9d07 c3bd 7b08 9e3c 1717 d43d
00000230: 1328 33bd fa48 8abd 0bae 763d 484a c13c
00000240: e9ec 27bd 34ba 25bd 66de 573d b812 83bd
00000250: e027 b5bc a681 ff3d 9acf 323d 37d9 043e
00000260: 9d50 a03d 5d32 0b3d 5846 17bd 581f 5ebd
00000270: 79b4 11bc 0298 053d 815c 31bd a560 0fbd
00000280: 2234 353c 7d8a 83bb 4049 993d 3c4c ccbd
00000290: 160c 4e3c 2bc6 fb3d 58da 63bd b6c2 e6ba
000002a0: bf40 e1bc 1419 c93c d01d bd3d 1079 19bc
000002b0: 65f1 06bd 5002 49bc f70d e3bd ecfa eb3d
000002c0: 032d 2f3d db01 69bd 962a 403c e232 a93b
000002d0: 8fd1 5d3d 4926 113d 8f66 c8bc 3f19 d7ba
000002e0: ed41 87bd 944f c0bd 9636 6f3d e9f7 c8bd
000002f0: a917 98bb c9d4 43bd 3be4 2e3d 4d01 2ebd
00000300: fc16 8ebd 5baf d9bd c4a2 00be 6c5a 883b
00000310: f328 14bd 76b9 d43c e191 afbd 5e91 1ebd
00000320: fd34 ed3d b068 00bb 6dec 2c3d ed59 0e3d
00000330: 5fa7 173d a4c2 3cbd 8141 e7bd 5d74 c03c
00000340: f6b5 8fbc 2206 bcbc 89b5 9fbd 8b5e 78bc
00000350: f71e b23c f5a7 d2bc 0434 c4bd ec1a f23d
00000360: 03e3 acbc 2d07 a1bc d1f4 cf3b 269d d0bd
00000370: cb81 2ebd c8e9 06bd f120 c2bb 0a7c 96bd
00000380: 65b8 debd 3894 3a3d 1a3e 85bd ad94 ebbc
00000390: d66e e73c a7ff f23c 674b aebd 0c26 543d
000003a0: 72e2 6abd 4c21 893d 2101 80bd dc3b 7a3d
000003b0: ea18 c03d 8c28 42bd 3838 c8bb df01 0c3b
000003c0: a096 e8bb 7fb5 9d3d 0218 85bd 1748 47bc
000003d0: 314f 62bd 55db 333d b46c 4abd a93d 0fbc
000003e0: fcc0 9d3d 1955 893d 2b61 99bd fc57 c23c
000003f0: 4018 20bc 69ea b23c 5a05 04be 392d 09bd
0.08220423 0.07392275 0.081953935 -0.051302955 -0.0023794055 0.013234048 -0.060443547 -0.010060154
0.08694617 0.09824799 -0.0617592 0.11035032 -0.09147637 -0.0055244872 -0.05659806 0.03634104
-0.06675173 0.07065348 -0.033249915 -0.004915552 -0.05461434 0.09179854 -0.0678174 -0.013889225
-0.037267882 0.10974678 0.009356529 -0.065372676 -0.008712698 -0.060638312 0.043954376 0.0058631776
0.10275574 -0.10337182 -0.05970066 -0.089940965 -0.074272126 0.045994665 -0.07990932 -0.020252734
0.057963282 0.061875492 0.043092486 -0.12320536 -0.005157275 0.025983427 0.01974821 0.12031297
-0.0077660014 0.07286077 -0.09543213 -0.04788985 0.009050798 0.009358269 -0.08146261 0.05062063
-0.040172674 -0.0844706 -0.05261982 -0.0010378978 0.052457083 -0.116094254 0.07881131 0.092848554
0.02110624 -0.114022054 0.07687409 0.07624142 0.060254667 0.06056625 0.030386385 0.049115993
-0.059207745 0.06633985 0.042063773 0.09536074 0.04263046 -0.0291654 -0.033995982 -0.07618178
-0.09239555 0.05850914 -0.06527668 0.006238563 0.11954753 0.12561318 0.076988 -0.020476338
-0.056631118 -0.022240233 0.008543078 0.02190637 -0.012579016 0.057754893 0.037149515 -0.02063362
0.049900156 0.049523123 0.05829909 0.023801912 -0.029068315 0.12546898 0.04598077 0.04203336
-0.020601237 -0.016283622 -0.11542202 0.06516467 0.057702407 0.032060377 0.07372569 -0.091004305
-0.010237573 -0.09160187 0.07619771 0.012086813 -0.101177625 -0.11701949 -0.013537313 0.01538703
-0.02275312 0.037307903 -0.11512375 -0.0032522061 0.04268016 -0.11367932 0.052980065 0.07047857
-0.12630038 -0.01536213 -0.07739506 0.0035203192 0.024220405 0.057517406 -0.026434327 -0.055049762
-0.10430476 -0.095229365 0.019291153 0.103559665 -0.04373939 -0.067522004 0.060224574 0.02359499
-0.04099742 -0.04046078 0.05270233 -0.06400055 -0.02211374 0.124759 0.043655016 0.12973486
0.07827876 0.033983577 -0.03693232 -0.05422911 -0.008893126 0.03261567 -0.04330111 -0.035004277
0.011059793 -0.004014312 0.074846745 -0.09975478 0.012576124 0.12293657 -0.05562815 -0.0017605636
-0.027496694 0.024548091 0.09234202 -0.009367242 -0.032945056 -0.012268618 -0.11086648 0.11522469
0.042767536 -0.056886535 0.011728903 0.0051635364 0.05415493 0.035436902 -0.024462966 -0.0016410722
-0.06604371 -0.09390178 0.058401667 -0.0981291 -0.0046414924 -0.04781035 0.042698126 -0.04248171
-0.06937978 -0.106291495 -0.1256209 0.0041611698 -0.036171865 0.02596734 -0.08572746 -0.03871285
0.11582372 -0.0019593649 0.04221766 0.03475373 0.037024852 -0.04608406 -0.11291791 0.023492986
-0.01754282 -0.022952143 -0.07798297 -0.01515926 0.02174328 -0.025714854 -0.09580234 0.11821541
-0.021104341 -0.019656742 0.006346323 -0.10186224 -0.04260425 -0.032937795 -0.005924337 -0.07347877
-0.10875014 0.04555151 -0.065059856 -0.028757418 0.028251093 0.02966292 -0.085104756 0.051794097
-0.05734486 0.06695804 -0.06250215 0.061092243 0.09379752 -0.04740195 -0.0061102174 0.002136342
-0.007098034 0.07700633 -0.0649872 -0.012163184 -0.055251304 0.043910343 -0.049420074 -0.008742728
0.077028245 0.06705684 -0.074892364 0.023723595 -0.009771407 0.021840291 -0.12892666 -0.033490393

attn.lin_skip.bias f4 [64]
00000000: 0f8b a6bc be7d 8dbd 366c 38bc 3e89 9f3c
00000010: 2ed6 793c c2ff 713d f859 8f3c 3ee7 67bb
00000020: eda6 b3bc 8ce1 c3bc a994 5e3d 69db 4d3d
00000030: 46b8 68bc 1913 653d 3504 773d 6f92 31bd
00000040: a1a1 afbd 74d1 e93c 0c48 35ba 8814 64bd
00000050: a37c 903d 54d3 833d b081 c6bd 4273 8fbd
00000060: 9491 63bd f7e0 c23c 4205 a13d 1903 a23d
00000070: 3cb1 9e3d 2142 36bc ce12 bebd 333b 953c
00000080: f9e4 d33d 7a9d c33d 1d17 f33c 082a 273d
00000090: 311f d93d 7f51 0f3d 73fb b0bc 2cc4 bcbd
000000a0: ed20 663d 20c9 b83c 5d2d 4d3c b411 8dbc
000000b0: 2f35 4c3d 38b5 19bc 14d7 bdbd f752 49bd
000000c0: 2710 47bc 44aa cd3d 92af 73bd e9c8 efbc
000000d0: 25ba 453d f6f3 ac3d 4c62 513b 7bf6 b23d
000000e0: 09ef 8bbd 24f4 113c 3338 093c 2255 b8bd
000000f0: 57ca e7bd 9f48 843d 013c 003e d7bd 39bd
-0.02032998 -0.06908749 -0.011256268 0.019474622 0.015248818 0.0590818 0.017498955 -0.0035385634
-0.021930182 -0.02391126 0.054340992 0.050258074 -0.01420409 0.055926416 0.060306747 -0.04335254
-0.0857575 0.028542258 -0.0006915338 -0.055683643 0.070550226 0.06436792 -0.09692705 -0.070044056
-0.055558756 0.023788912 0.07862331 0.07910747 0.077486485 -0.011124165 -0.092809305 0.018216705
0.103464074 0.09551521 0.029674107 0.04081157 0.106016524 0.03498983 -0.021604275 -0.09217104
0.056183744 0.022556841 0.0125230225 -0.017220356 0.049855407 -0.009381585 -0.092695385 -0.049151387
-0.012149847 0.10042241 -0.05949361 -0.029270606 0.048273224 0.08444969 0.0031949459 0.08738419
-0.06832702 0.008908305 0.008375215 -0.09000613 -0.1131789 0.06459164 0.1252289 -0.04534706

norm.weight f4 [64]
00000000: 37bc 6f3f c179 663f 0ea1 693f bfdf 653f
00000010: 4dba 523f 38f1 683f 893c 443f ee29 713f
00000020: 6e00 6f3f 61b6 623f b9de 653f d359 5d3f
00000030: 180a 4a3f a84f 6a3f 3a44 463f cffb 583f
00000040: cd3f 563f 3132 6e3f 4557 6c3f 867f 623f
00000050: c8d0 493f 25c1 523f 9e68 4d3f c596 7c3f
00000060: 4cc2 7f3f a404 743f 3988 7f3f 8bc8 613f
00000070: db1e 803f 5dda 573f 15ef 813f 580d 623f
00000080: 71f1 773f 4f46 803f 0a9d 5d3f 84cd 723f
00000090: 45ff 7a3f 2127 3d3f 3db6 803f 2966 593f
000000a0: 764c 7f3f e1d8 423f d122 5e3f 8c3a 433f
000000b0: 85de 6f3f a223 463f 9b58 793f a0fa 703f
000000c0: 1a1d 813f bd7c 733f a5d5 753f 209e 823f
000000d0: 6277 733f bafd 7e3f 8cda 693f c5a0 673f
000000e0: c024 443f ec92 7c3f 8a98 533f f580 653f
000000f0: 80a6 813f be49 3d3f bbc1 813f 544f 7d3f
0.9364657 0.9002953 0.91261375 0.89794534 0.8231552 0.9099307 0.7665487 0.94204605
0.9336003 0.8855954 0.8979297 0.86465186 0.7892165 0.91527796 0.77447855 0.8475923
0.836911 0.93045336 0.9232066 0.88475835 0.788342 0.82325965 0.8023776 0.98667556
0.9990585 0.9531958 0.99817234 0.8819663 1.0009416 0.8431757 1.0151087 0.8830161
0.96852785 1.0021456 0.8656775 0.9484484 0.9804576 0.7388783 1.0055615 0.8492151
0.99726045 0.7611218 0.86771876 0.7626121 0.9369891 0.7739812 0.97400826 0.94132423
1.0087006 0.9511221 0.9602912 1.0204506 0.9510404 0.99605906 0.913491 0.9047969
0.76618576 0.98661685 0.8265463 0.896499 1.0128937 0.73940647 1.0137247 0.9894917

norm.bias f4 [64]
00000000: 6184 62bc a91f 5bbc 06e6 673c 7685 89bc
00000010: 9131 30bc e800 34bc 6141 e23c a455 4f3d
00000020: 3547 e53b c729 03bc b411 a03c 53d8 4b3c
00000030: e7e6 cebb 68e3 413d 23ad df3c f64d 6f3c
00000040: 6709 21bc 312f d43c b356 bbbb 95e8 8cbc
00000050: 287c 02bc e95d 803c 0022 8aba 54ce 973c
00000060: f555 8b3c ac84 543c 6c7e 8d3c 4677 9c3c
00000070: d647 983c f257 843c eb11 933c 896b 123d
00000080: 8784 043d 1c2f 983c 4783 e0bc 1ebc 353c
00000090: b8df 733c ac82 a9b8 5118 863c 9e5b 47bc
000000a0: d11a 893c a8aa 1bbc df79 2ebc 809c 103b
000000b0: f35d 6bbc 9309 9ebc e282 6b3c a013 893b
000000c0: 8e5b 873c 3463 85bc 5782 85bc cebb 843c
000000d0: f0fc 063d 91fc 9f3c 1816 a1bc e0a1 ee3c
000000e0: 30e6 2fbc f7ec 6b3c d407 233d 6af4 9cbc
000000f0: d46a a23c 39d6 fdb9 9726 8d3c ef5a 623c
-0.013825507 -0.013374248 0.014153963 -0.016787272 -0.010754005 -0.010986544 0.027619066 0.050618783
0.006997014 -0.008005566 0.019539692 0.012441712 -0.006314147 0.047336012 0.027304238 0.01460599
-0.009828902 0.025901409 -0.0057171225 -0.017200748 -0.0079641715 0.01566978 -0.0010538697 0.018531002
0.017008761 0.012971085 0.017272197 0.019099843 0.018588942 0.016155217 0.01795288 0.035747085
0.03235295 0.018577151 -0.027406348 0.011092214 0.014884882 -8.0828875e-05 0.016369017 -0.012167839
0.01673642 -0.009501137 -0.0106491735 0.0022065938 -0.014365661 -0.019291675 0.014374467 0.0041832477
0.016523149 -0.016282655 -0.016297502 0.016202834 0.032956064 0.019529613 -0.019663855 0.029129922
-0.010736033 0.014399759 0.039802387 -0.019159514 0.01982633 -0.0004841553 0.017230315 0.013815626
